Project/Assets/ML-Agents/Examples/3DBall/TFModels/3DBall.onnx (onnx, 73994 bytes, 9 tensors)

50 f4 [8]
0	0x3d94308f	0.07235824
1	0x3d88999d	0.066699244
2	0x3f7e3d0a	0.9931189
3	0x3ea9898a	0.33112746
4	0x3f77a7c2	0.96740353
5	0x3f5a6d91	0.85323435
6	0x3f7b81d7	0.98244995
7	0x3f4a1a05	0.7894595

action_model._continuous_distribution.log_sigma f4 [1, 2]
0	0xbdaba1ab	-0.08380445
1	0xbe014599	-0.12624206

action_model._continuous_distribution.mu.bias f4 [2]
0	0x3c9a3da2	0.018828217
1	0xbc6732cd	-0.014111233

action_model._continuous_distribution.mu.weight f4 [2, 128]
0	0x3c95fe9c	0.018309884
1	0x3c21632e	0.009850306
2	0x3d1a1767	0.037619974
3	0xbd5eb2bd	-0.054369677
4	0x3d52d871	0.051475946
5	0xbd918364	-0.07105139
6	0x3daab04d	0.08334408
7	0x3c85fdb4	0.016356327
8	0xbcb74c7f	-0.022375343
9	0xbd2636ab	-0.04057948
10	0xb9ea492e	-0.0004468648
11	0xbb8f5460	-0.004374072
12	0x3c986e90	0.018607408
13	0x3d6fd044	0.058548227
14	0x3c4ad3f1	0.012379632
15	0x3c6e8944	0.014559094
16	0xbd9bfb0b	-0.07616242
17	0xbd02aa69	-0.031900797
18	0x3de79fa9	0.1130975
19	0xbca5dde8	-0.020247415
20	0x3be47290	0.0069716647
21	0x3da66fe6	0.08126812
22	0xbc6ff457	-0.0146456575
23	0xbd8bdbac	-0.068290085
24	0xbce504cf	-0.027956394
25	0x3dc94e96	0.09829442
26	0x3d099a69	0.033594523
27	0x3c14c427	0.0090799695
28	0x3bb7aecc	0.005605554
29	0x3cec02b0	0.028809875
30	0xbac9313e	-0.0015349758
31	0xbc1c2c38	-0.009532027
32	0xbcb88163	-0.022522634
33	0xbca2aaee	-0.019856896
34	0xbcb516eb	-0.022105655
35	0x3d56ca3e	0.052438967
36	0xbc9bce1d	-0.01901918
37	0xbbc33bf7	-0.005958076
38	0xbc471da0	-0.012153059
39	0x3cd958fb	0.026531687
40	0xbcdc2802	-0.026874546
41	0x3c340867	0.010988331
42	0xba6793f4	-0.00088339974
43	0x3ce9a0cc	0.028519057
44	0xbc962fca	-0.018333334
45	0x3d4716f5	0.048605878
46	0x3d4050b2	0.046951957
47	0xbb396d78	-0.0028294008
48	0x3c896c3d	0.016775245
49	0xbb8eeef2	-0.0043619806
50	0xbbcf85a6	-0.006333071
51	0xbae76672	-0.0017654432
52	0xbd51756b	-0.05113737
53	0xbc9bcd00	-0.01901865
54	0x3d034def	0.032056745
55	0xbd3650ad	-0.044510532
56	0x3c063946	0.008192366
57	0x3c86423b	0.016389003
58	0x3c101ab0	0.008795425
59	0xbd0272f3	-0.031847905
60	0x3c1fb201	0.009747029
61	0x3cd09acd	0.02546444
62	0x3c24c101	0.010055781
63	0xb95ed132	-0.00021249501
64	0xbde1b4a4	-0.110207826
65	0xbbac08ff	-0.005250096
66	0x3ce3f406	0.02782632
67	0xbd1f9a9a	-0.0389658
68	0x3d49c9be	0.049264662
69	0xbc6120f4	-0.013740767
70	0xbbc1c518	-0.005913388
71	0x3b9dd682	0.004816831
72	0xbc742efc	-0.01490378
73	0xbd458794	-0.048225
74	0xbabbb8a1	-0.0014321991
75	0x3bded449	0.0068002087
76	0x3bcef685	0.0063160085
77	0x3a15b5ec	0.00057110074
78	0x3d032880	0.032021046
79	0xbc17a2fc	-0.009255167
80	0x3d56a10e	0.052399687
81	0x3c95f220	0.01830393
82	0xbd536339	-0.051608298
83	0x3b86e29d	0.00411637
84	0xbd05d8d8	-0.0326775
85	0x3c502415	0.012703915
86	0x3cebb399	0.028772162
87	0x3d879bf1	0.0662154
88	0xbd385cd9	-0.04501042
89	0x3d0ee6fb	0.03488825
90	0x3c0ce7b9	0.008600169
91	0xbb88b924	-0.004172461
92	0xbcab6eb4	-0.02092681
93	0x3b54250f	0.0032370721
94	0x3c985ede	0.018599924
95	0xbce2ecbc	-0.027700774
96	0x3d3bdad3	0.045862984
97	0xbd0c1d54	-0.034207657
98	0x3dab45b1	0.08362902
99	0x3d72aff3	0.05924983
100	0x3a58a8ad	0.0008264881
101	0xbc761c38	-0.015021376
102	0xbd818859	-0.063248344
103	0xbc19aa42	-0.0093789715
104	0x3c2c79fd	0.010527131
105	0x3cbbb239	0.022912132
106	0x3b8bb282	0.004263223
107	0x3cd0c8d3	0.025486385
108	0xbbdb732e	-0.00669708
109	0x3d21ec38	0.039531916
110	0x3df47a87	0.11937433
111	0x3d40a330	0.047030628
112	0x3c650ceb	0.013980131
113	0xbc4cc291	-0.01249756
114	0xbcc32de3	-0.023825591
115	0xbce1efbe	-0.027580138
116	0xbb018235	-0.0019761447
117	0x3d9c65ac	0.0763658
118	0x3d50a792	0.050941058
119	0x3d1ec252	0.038759537
120	0xb9c32eeb	-0.00037228255
121	0xbdd02939	-0.101641126
122	0xbd13909f	-0.036026593
123	0xbd024302	-0.031802185
124	0x3da88083	0.08227637
125	0x3bf605a9	0.007507999
126	0xbd964fa6	-0.073394105
127	0xba2b218f	-0.0006528133
128	0x3d7a3a7d	0.061090935
129	0x3ca4d505	0.020121107
130	0x3bebf898	0.0072012655
131	0x3c5f3b71	0.013625012
132	0x3d548053	0.051880192
133	0xbd1a34ec	-0.037648126
134	0x3c06ddd5	0.0082316
135	0xbccda03f	-0.025100825
136	0x3bbb3195	0.0057126977
137	0x3cbbc7cb	0.022922417
138	0xbaab5846	-0.0013072572
139	0x3d167650	0.036733925
140	0x3d1a56e4	0.03768052
141	0x3d8785af	0.06617295
142	0xbd62df8c	-0.055388972
143	0x3ca4493b	0.02005445
144	0xbb61388a	-0.0034365975
145	0xbbd482f2	-0.0064853365
146	0x3cf474b6	0.029840808
147	0x3c8323dc	0.01600831
148	0x3de00182	0.109377876
149	0x3cd5cbfc	0.026098244
150	0xbc4e728e	-0.012600554
151	0x3ca1374c	0.019679688
152	0xbcddf3d9	-0.027093815
153	0xbc399b7c	-0.011328574
154	0x3a6be5c5	0.0008998777
155	0xbaad24f2	-0.0013209863
156	0x3cc243be	0.023713943
157	0x3cade9ee	0.02122971
158	0xbd2b7bfe	-0.041866295
159	0xba165c15	-0.0005735767
160	0x3d94d968	0.072680295
161	0xbc8cd363	-0.01719064
162	0xbcdcf4d7	-0.026972217
163	0x3c2945e8	0.010331608
164	0xbcd4c74a	-0.025973935
165	0x3de5a760	0.11213565
166	0xbd52444e	-0.05133467
167	0xbbbb74a2	-0.005720691
168	0x3d12a0bf	0.03579783
169	0xbb3cbd60	-0.00287994
170	0xbd1c33f1	-0.038135473
171	0x3dc355e8	0.0953787
172	0x3d85c8af	0.06532418
173	0xbb5e71d3	-0.0033942356
174	0x3b4ce453	0.0031264022
175	0xbb78b200	-0.0037947893
176	0x3d15ffb7	0.03662082
177	0xbb953671	-0.004553609
178	0xbc8a0818	-0.016849563
179	0x3c4cf623	0.012509855
180	0xbdac90b2	-0.08426036
181	0x3ca6364d	0.020289565
182	0xbcde4678	-0.027133211
183	0xbd723d33	-0.059140395
184	0x3d4622ab	0.048372906
185	0xbcd1481b	-0.025547078
186	0xbc81b657	-0.015834017
187	0x3d38bc01	0.04510117
188	0x3d231c44	0.039821878
189	0xbbf0891e	-0.0073405644
190	0xbd34cda8	-0.04414144
191	0xbd84e486	-0.064889
192	0x3c7e08db	0.015505041
193	0x3ca3ff99	0.02001934
194	0xbd75ccc1	-0.06000972
195	0x3b880619	0.0041511175
196	0x3c9215f3	0.017832732
197	0x3c6ff99c	0.014646914
198	0x3baf1d3e	0.005344062
199	0x3da7ea36	0.08198969
200	0xbbe704ef	-0.0070501487
201	0xbcf01abe	-0.029309627
202	0xbb2ee53c	-0.0026686927
203	0xbd1ccc40	-0.038280725
204	0xbba9d8d0	-0.005183317
205	0xbb172279	-0.0023061319
206	0x3ddde11b	0.10833951
207	0xbd10e904	-0.03537847
208	0x3c94ed05	0.018179426
209	0xba53f0ac	-0.0008084874
210	0xbcfc84c0	-0.030825019
211	0xbcbc4dfd	-0.022986406
212	0x3bdfabcf	0.006825901
213	0x3cf8da92	0.03037766
214	0x3d16aaf1	0.036784116
215	0x3cdb74ca	0.026789088
216	0x3da8640e	0.08222209
217	0xbdc1713f	-0.09445428
218	0x3d77c3b5	0.060489375
219	0xbc6efa21	-0.014586003
220	0x3d9259cc	0.07146034
221	0xbb64bc91	-0.0034902433
222	0xbc9d9e16	-0.01924042
223	0xbbc13bf9	-0.005897042
224	0x3d15628c	0.036470935
225	0xbc8b2788	-0.016986623
226	0x3c8be630	0.017077535
227	0xbd5fab9b	-0.054607015
228	0x39d622fe	0.00040843332
229	0x3b48f2c0	0.0030662268
230	0xbd7bf3f4	-0.06151195
231	0x3c6ff190	0.014644995
232	0x3ce96396	0.02848987
233	0x3d6d5d78	0.057950467
234	0x3b40a96c	0.0029397858
235	0x3d786995	0.060647566
236	0xbcff74b7	-0.031183584
237	0xbd8df1f5	-0.06930915
238	0xbdd9cf81	-0.10635281
239	0xbbeb2353	-0.007175842
240	0xbcefe5e4	-0.029284425
241	0x3bcc9a3d	0.0062439726
242	0x3d43382a	0.047660984
243	0xbd4cea42	-0.050028093
244	0xbbd59ed6	-0.006519179
245	0x3d0ff141	0.035142187
246	0xbd12f31c	-0.03587638
247	0xbaa4e4d5	-0.0012580404
248	0xba7aac53	-0.00095624215
249	0x3b9432e8	0.00452267
250	0xbbae76b5	-0.0053242096
251	0x3bd49da8	0.0064885207
252	0x3c774746	0.0150926765
253	0xbca22c1e	-0.019796427
254	0x3d60ac4a	0.054851808
255	0x3ad3aff4	0.001615046

network_body._body_endoder.seq_layers.0.bias f4 [128]
0	0x3cf12aba	0.029439319
1	0x3d85c47d	0.06531618
2	0xbaeda8d1	-0.0018131976
3	0x3d507a82	0.050898083
4	0x3b0d5a72	0.0021568802
5	0xbca95cb9	-0.020674096
6	0xbd935c47	-0.07195335
7	0xbc345491	-0.01100649
8	0xbd36d9d4	-0.04464133
9	0xbd234c39	-0.039867613
10	0xbbba1233	-0.005678439
11	0x3c06cd26	0.008227622
12	0xbd273035	-0.04081746
13	0x3c1741a1	0.009231956
14	0xbd177e53	-0.036985707
15	0x3d490ffd	0.049087513
16	0xbb85d83d	-0.0040846155
17	0xbd7eeb3c	-0.062236056
18	0xbc364692	-0.011125224
19	0x3d0db046	0.034591936
20	0xbc81aa2e	-0.015828218
21	0x3cfec829	0.031101303
22	0xbd1dfa8f	-0.03856903
23	0x3ceeec27	0.02916534
24	0xbc423df2	-0.011855589
25	0xbbe03f97	-0.006843518
26	0xbda68522	-0.08130862
27	0xbd7384fc	-0.059452996
28	0x3d0164f7	0.03159043
29	0x3c9c91aa	0.019112427
30	0xbd3c96ff	-0.04604244
31	0xbcb45a93	-0.022015845
32	0xbc396f79	-0.011318081
33	0x3946b16e	0.00018948849
34	0xbbd2109b	-0.006410671
35	0xbd80fd72	-0.06298341
36	0x3d258d2e	0.040417843
37	0xbc5af36a	-0.0133636985
38	0xbd2016f2	-0.039084382
39	0xbd6eb55e	-0.058278434
40	0x3c9f693b	0.019459357
41	0xbce6646c	-0.028124057
42	0xbcaea239	-0.021317588
43	0xbd2a8c01	-0.041637424
44	0xbc6e245a	-0.014535034
45	0x3d077832	0.03307361
46	0x3ceeca26	0.029149126
47	0xbd69b0c4	-0.057053342
48	0x3d1334f1	0.03593916
49	0xbcc8ec8e	-0.02452686
50	0x3c21c8a7	0.009874499
51	0x3c8014a2	0.015634838
52	0x3c5b1f08	0.013374098
53	0x3c5ee2d2	0.013603883
54	0xbd2a98b3	-0.04164953
55	0xba3429c6	-0.000687268
56	0xbc35763f	-0.011075555
57	0xbd0ae81a	-0.033912756
58	0xbc0e4f12	-0.008685844
59	0x3d33770a	0.043814696
60	0xbb7c8029	-0.0038528538
61	0x3d812642	0.06306125
62	0x3c2ffab2	0.010740923
63	0x3c86b031	0.016441436
64	0xba074724	-0.0005160442
65	0x3d12f982	0.03588248
66	0xbd45c3fe	-0.048282616
67	0xbd1a455a	-0.037663795
68	0x3d236070	0.03988689
69	0xbda67ad6	-0.08128898
70	0xbc4b8063	-0.0124207465
71	0x3d1062a1	0.03525031
72	0x3c0b43de	0.0085000675
73	0xbdba13d1	-0.09085811
74	0xbd1d3288	-0.03837827
75	0x3bd0c704	0.0063713808
76	0x3c215128	0.009846009
77	0x3d878d5c	0.06618759
78	0xbc4aab9c	-0.012370016
79	0x3c5c5f01	0.013450385
80	0xbb3c17b6	-0.0028700656
81	0xbd8219ab	-0.06352552
82	0xbce81eae	-0.028334942
83	0x3b888570	0.0041662976
84	0xbc844b0e	-0.01614907
85	0xbcc1ad4b	-0.023642203
86	0xbd42cce0	-0.047558665
87	0xbd0af101	-0.033921245
88	0x3bb09db0	0.0053898916
89	0xbaeb0b57	-0.0017932457
90	0x3d0ebdd5	0.034849007
91	0x3cd58953	0.026066458
92	0xbce14198	-0.027497098
93	0x3d44fc9f	0.04809248
94	0xbdb459bf	-0.0880618
95	0x3c18e5be	0.009332119
96	0xbc93a986	-0.018025171
97	0x3d76d41a	0.06026087
98	0xbdd1c4c2	-0.10242607
99	0x3d1349e7	0.03595915
100	0x3b18d568	0.002332056
101	0xbd5ffb6e	-0.05468314
102	0xbd0ca30a	-0.034335174
103	0xbca6e749	-0.020373957
104	0xbaa6710a	-0.0012698483
105	0xbd795e69	-0.060881052
106	0xbcd2d553	-0.025736487
107	0xba47a4ab	-0.0007615785
108	0x3b8779e7	0.004134405
109	0xbc35a8c4	-0.0110876
110	0xbdc4f50b	-0.09617051
111	0xbd0dfaf1	-0.034663144
112	0xbdc0dc43	-0.094170116
113	0x3c84da3f	0.01621735
114	0xbd25794c	-0.04039888
115	0x3c0517a6	0.008123314
116	0xbd3effc4	-0.046630636
117	0xbcfc4a4d	-0.030797148
118	0x3d0890ce	0.03334122
119	0x3c3c3f7b	0.011489744
120	0xbcbdfd0e	-0.023191955
121	0xbd327b7f	-0.043574806
122	0xbc0ecd6d	-0.0087159695
123	0xbd87b2b7	-0.06625884
124	0xbc177dc5	-0.009246294
125	0xbc8246da	-0.015902925
126	0x3c7b2150	0.015327767
127	0xbc8781e0	-0.016541421

network_body._body_endoder.seq_layers.0.weight f4 [128, 8]
0	0xbe2a6a1d	-0.16642042
1	0xbdddf7f2	-0.108383074
2	0x3e05b85c	0.13058609
3	0x3e3940d8	0.18091142
4	0xbe51cfeb	-0.2048947
5	0x3e694f9e	0.22784278
6	0xbe8bd371	-0.27309754
7	0x3d558124	0.05212511
8	0x3eb248a8	0.34821057
9	0x3f3e3a26	0.7430748
10	0x3e9c9182	0.30579764
11	0x3d90f300	0.070775986
12	0xbdad68ce	-0.084672555
13	0x3f0a5f07	0.5405125
14	0x3dd30dff	0.10305404
15	0x3f4d81c2	0.8027612
16	0xbe0566e3	-0.1302753
17	0x3e98f1aa	0.29871875
18	0xbededfe4	-0.4353019
19	0x3e066253	0.13123445
20	0x3e5edf4f	0.21764873
21	0xbe892410	-0.26785326
22	0x3e327761	0.17428352
23	0x3e41f333	0.1894043
24	0xbf158f3f	-0.584217
25	0x3ef7f05f	0.48425576
26	0xbdbb147e	-0.09134768
27	0x3ef4638c	0.47732198
28	0xbd64a215	-0.055818636
29	0xbe861de6	-0.26194686
30	0x3e86fe07	0.26365682
31	0x3f5cf2c4	0.8630793
32	0x3e5b2ff5	0.21405013
33	0xbdf1c527	-0.11805182
34	0xbf46e7df	-0.7769756
35	0xbdb5e4cf	-0.088815324
36	0xbeacab79	-0.33724573
37	0x3e388b83	0.1802197
38	0x3e44fa14	0.19236022
39	0x3f892247	1.0713586
40	0xbf32ac1d	-0.69793874
41	0xbed6dba8	-0.4196446
42	0xbc21bd63	-0.0098718135
43	0x3d85cc74	0.06533137
44	0xbf1a3743	-0.6024057
45	0x3eb0e713	0.34551296
46	0xbf069057	-0.52563995
47	0xbc95a94a	-0.0182692
48	0xbd5ddf57	-0.05416807
49	0xbf5c43a8	-0.86040735
50	0x3e78ac79	0.24284543
51	0xbe95353a	-0.2914217
52	0x3ec22430	0.37918234
53	0x3df33491	0.118752606
54	0xbeec219c	-0.46119392
55	0x3e936132	0.28785092
56	0x3e37903c	0.17926115
57	0x3ebda118	0.37036967
58	0x3f0d9d37	0.55318016
59	0x3c9bc8a3	0.01901657
60	0xbef0ee4f	-0.47056815
61	0x3e42c690	0.19021058
62	0xbf5691cf	-0.83816236
63	0xbec9971f	-0.3937311
64	0xbe09af5a	-0.13445798
65	0xbe3c7b49	-0.18406405
66	0xbeba1617	-0.36344978
67	0xbf0eade2	-0.55734074
68	0xbe09049a	-0.13380662
69	0xbe1330dd	-0.14374109
70	0x3e42eefa	0.19036475
71	0x3d03edc2	0.032209165
72	0xbf031e24	-0.51217866
73	0x3e890ec0	0.26769066
74	0xbf2ba1a3	-0.67043513
75	0x3ef9082d	0.4863905
76	0xbf66b601	-0.90121466
77	0xbe9db26d	-0.3080019
78	0x3e83ed22	0.25766855
79	0x3e0ec029	0.13940491
80	0x3db85e9e	0.09002422
81	0xbe051d42	-0.12999442
82	0xbef8e79f	-0.48614213
83	0x3f45e3b9	0.773006
84	0xbecd20da	-0.40064126
85	0xbe7ce865	-0.24698026
86	0x3b3bf3d5	0.002867927
87	0x3ec3480a	0.381409
88	0x3f7a8b7c	0.97869086
89	0xbe061c2a	-0.13096681
90	0x3e01d3cf	0.12678455
91	0x3e8fe1d9	0.28101996
92	0xbee80ab0	-0.45320654
93	0x3e0573c7	0.13032447
94	0x3e2e123f	0.16999148
95	0x3eab699c	0.3347901
96	0xbf0e4447	-0.5557293
97	0x3e9f7890	0.3114667
98	0x3c3a55d1	0.011372999
99	0xbd4e84c1	-0.050419573
100	0x3cef3c56	0.029203575
101	0x3e1aebd5	0.15129025
102	0xbdd994c6	-0.106240794
103	0x3ec1e147	0.37867185
104	0x3dd966a3	0.106152795
105	0x3f02999a	0.5101563
106	0xbf0a169d	-0.53940755
107	0xbf337ea6	-0.70115125
108	0xbd97dba5	-0.07414941
109	0xbe275c70	-0.16343856
110	0x3f78041f	0.9688129
111	0xbe467f56	-0.19384512
112	0xbec7fdfa	-0.39060956
113	0x3f1afbc9	0.60540444
114	0x3e673f3d	0.22582717
115	0xbdd6de9a	-0.10491677
116	0x3ede9470	0.43472624
117	0xbe5ff745	-0.2187167
118	0xbf20489b	-0.6261079
119	0x3f475291	0.7786036
120	0xbeccd5f2	-0.40006977
121	0xbeb4e524	-0.3533107
122	0x3df05581	0.117350586
123	0x3ec761e5	0.38941875
124	0x3f1d3c0b	0.61419743
125	0x3f177169	0.59157425
126	0x3ebd8ba1	0.3702059
127	0xbcf303ad	-0.029664839
128	0x3f05ba68	0.5223756
129	0xbc8e9ec6	-0.017409693
130	0xbcac9f53	-0.021072065
131	0x3da4958a	0.08036335
132	0xbf1cf23d	-0.61307126
133	0xbe8e5bc0	-0.27804375
134	0x3d6e9091	0.058243338
135	0x3e9cfede	0.30663198
136	0xbdfa3e23	-0.12218883
137	0xbf1fa6c9	-0.6236387
138	0x3e41be66	0.18920287
139	0xbe93b5a0	-0.28849506
140	0xbf1c6cfe	-0.6110381
141	0x3e893da9	0.26804855
142	0xbe9f4e12	-0.3111425
143	0xbe4f038f	-0.20216201
144	0x3e2836c7	0.16427146
145	0xbe08458a	-0.13307777
146	0x3dadd26f	0.08487403
147	0x3e779826	0.24179134
148	0x3e9f297f	0.31086347
149	0x3e9eb05a	0.3099392
150	0x3d8f7d1a	0.07006283
151	0xbedf2383	-0.4358178
152	0x3baf27ea	0.0053453343
153	0x3e878a28	0.26472592
154	0x3e42babe	0.19016549
155	0xbef66204	-0.48121655
156	0x3e9214d2	0.2853151
157	0x3e5c20b8	0.21496856
158	0x3f26f752	0.6522113
159	0x3ef1869d	0.47173014
160	0x3dd9cd16	0.1063482
161	0x3eb62068	0.355716
162	0x3f105d16	0.5639204
163	0xbd7d7530	-0.061879337
164	0xbe476c57	-0.19474922
165	0x3da4baf3	0.0804347
166	0xbd35ccfe	-0.04438495
167	0x3cf49a7d	0.029858822
168	0x3965f99f	0.00021932133
169	0x3d55971e	0.05214607
170	0x3dcaa333	0.09894409
171	0xbd7c4541	-0.061589483
172	0xbd90dfd8	-0.07073945
173	0x3e0008b2	0.12503317
174	0xbd8efad0	-0.069814324
175	0x3ed36a88	0.41292214
176	0x3e2f015a	0.1709036
177	0x3f2eecea	0.6833025
178	0xbf10145c	-0.56281066
179	0xbe5bd006	-0.21466073
180	0x3ea3afe2	0.31970125
181	0x3ccee0e9	0.02525373
182	0xbc828e77	-0.015937073
183	0x3f3ef494	0.74591947
184	0x3f0e586b	0.55603665
185	0x3eaab498	0.33340907
186	0xbe16afdc	-0.14715523
187	0x3f2b68c6	0.66956747
188	0x3e330948	0.1748401
189	0xbeb537c1	-0.353941
190	0x3e8d2610	0.27568102
191	0x3ba48c21	0.0050215875
192	0xbe50540a	-0.20344558
193	0x3e463ebe	0.19359872
194	0x3ed3fddd	0.4140462
195	0x3dcc4f47	0.099760585
196	0x3e8a9ecc	0.27074277
197	0xbe9fcb17	-0.31209633
198	0xbd730b05	-0.05933668
199	0x3ecdd3ab	0.40200552
200	0x3ee2908b	0.44250903
201	0xbe093415	-0.13398774
202	0xbf8d3d96	-1.103442
203	0xbdd6f347	-0.1049562
204	0xbe62f124	-0.221623
205	0xbdabccee	-0.083886966
206	0x3efde81f	0.49591157
207	0x3d1ddca3	0.038540494
208	0x3f11028f	0.5664453
209	0xbde3fde6	-0.11132412
210	0xbf1f9b6d	-0.62346536
211	0xbe891c01	-0.26779178
212	0xbea7c79d	-0.3276948
213	0xbe88549c	-0.26627052
214	0xbea64406	-0.32473773
215	0xbf7c9901	-0.98670965
216	0xbea197b8	-0.31561065
217	0x3f655b2b	0.89592236
218	0xbd2db33e	-0.042407267
219	0xbef06e68	-0.46959233
220	0x3f673f6f	0.90331167
221	0xbf00291e	-0.5006274
222	0xbec4403d	-0.3833026
223	0x3ecc1722	0.398614
224	0xbe10b687	-0.14132129
225	0xbeaa9948	-0.3332007
226	0x3e6ce760	0.23135138
227	0x3e31a9d4	0.1734994
228	0xbd6e9829	-0.05825058
229	0x3c06e199	0.008232498
230	0x3e38f4f8	0.18062198
231	0xbea1bffe	-0.3159179
232	0xbeb28dee	-0.3487391
233	0xbea1890f	-0.3154988
234	0x3ed88942	0.4229222
235	0x3c3a6675	0.011376967
236	0x3ee6a0cc	0.45044553
237	0x3f46878e	0.7755059
238	0x3e8cceaa	0.27501422
239	0xbd0c8276	-0.034304105
240	0xbe8b4cda	-0.2720707
241	0xbe81857b	-0.2529715
242	0xbe0d943f	-0.13826083
243	0xbf2d0ae5	-0.6759475
244	0x3dcf35eb	0.10117706
245	0x3e8563ee	0.26052803
246	0x3f194f5b	0.5988671
247	0xbe37b22a	-0.17939058
248	0xbe62db17	-0.22153889
249	0x3da07dc3	0.07836487
250	0xbe4f34cc	-0.20234984
251	0x3ebe79c0	0.37202263
252	0xbeac15a6	-0.33610266
253	0xbebde045	-0.37085167
254	0x3eec4491	0.46146062
255	0xbe84e7dc	-0.25958145

network_body._body_endoder.seq_layers.2.bias f4 [128]
0	0x3ca8b3ad	0.020593489
1	0xbc520681	-0.012818933
2	0x3c05f899	0.008176946
3	0xbc130df7	-0.008975497
4	0x3cd00b2d	0.025395954
5	0x3cb28a87	0.02179457
6	0x3dad4720	0.08460832
7	0x3c1aba11	0.009443776
8	0xbc9c2821	-0.019062104
9	0xbc9a076a	-0.018802363
10	0xbd07dd2e	-0.033169918
11	0xbbe7b86a	-0.0070715444
12	0xbbd4594f	-0.006480373
13	0x3d272956	0.040810905
14	0x3cb22787	0.021747364
15	0xbb4377b0	-0.0029825978
16	0x3ba4e06b	0.0050316355
17	0xbcd60b65	-0.02612848
18	0x3d80b93f	0.06285333
19	0xbc75667d	-0.014978048
20	0x3cabe8c0	0.020985007
21	0x3d367945	0.044549245
22	0xbcc18e07	-0.023627294
23	0x3c0117cc	0.007879209
24	0xba614449	-0.0008593244
25	0x3d994f7f	0.07485866
26	0x3c0e405e	0.0086823385
27	0x3c673ca7	0.014113582
28	0xbd0fa3c6	-0.035068296
29	0x3c24bb4d	0.010054422
30	0x3c29359b	0.010327722
31	0xbd0420a9	-0.03225771
32	0x3c676a6d	0.014124495
33	0xbc83bbb5	-0.016080717
34	0xbad907c8	-0.0016558105
35	0x3c399ab8	0.011328392
36	0x3c79bfc5	0.015243475
37	0x3d4a0a06	0.049325965
38	0x3ca6f767	0.020381643
39	0x3c88c98e	0.016697671
40	0xbbd1b0b2	-0.0063992376
41	0xbb683647	-0.0035432742
42	0x3c3aa3d4	0.011391599
43	0x3d0d8c53	0.03455765
44	0xbb8e9008	-0.004350666
45	0x3ceb58ca	0.028728861
46	0x3c9a5b5b	0.01884239
47	0xbd1b4100	-0.037903786
48	0x3b4f09bb	0.0031591493
49	0xbc022562	-0.007943483
50	0x3abe4c25	0.0014518542
51	0xbc83ef6f	-0.016105382
52	0x3d16e4c9	0.03683928
53	0xbcf935ed	-0.030421222
54	0x3c2c9bc1	0.0105351815
55	0x3cf6b259	0.03011434
56	0xbb2a0ae7	-0.002594644
57	0x3c18e0ad	0.009330911
58	0x3b87cd7f	0.00414437
59	0xbcc61474	-0.024179675
60	0xbbc8d996	-0.006129454
61	0x3a95dd52	0.0011433756
62	0x3cadc258	0.021210834
63	0x3d19fede	0.037596576
64	0x3cb49c99	0.022047328
65	0xbcae17a0	-0.0212515
66	0x3d28ff5d	0.04125916
67	0xbc1c4533	-0.009537983
68	0x3cd6ee53	0.026236689
69	0xbcf59520	-0.029978335
70	0xbd3f7426	-0.046741627
71	0x3c5b46f6	0.013383618
72	0xbc30a79d	-0.01078215
73	0x3cd4f45e	0.02599543
74	0xbcd9c8d7	-0.026585026
75	0x3bf6b987	0.007529441
76	0xbc59d6b3	-0.013295817
77	0xbcaa5758	-0.020793602
78	0x3c7aeadd	0.015314785
79	0x3c9e76ac	0.019343697
80	0x3c83c027	0.016082836
81	0x3cdccd39	0.026953327
82	0x38a53a76	7.878702e-05
83	0x3b383343	0.0028106726
84	0xbc5b0378	-0.013367526
85	0xbc991e08	-0.018691078
86	0xbc5cbdad	-0.013472957
87	0x3d4aba4d	0.049494077
88	0x3c816e41	0.015799643
89	0x3d9bd78d	0.076094724
90	0x3b032eab	0.002001683
91	0xbc80a6ac	-0.015704475
92	0xbbae7736	-0.0053242696
93	0xbc80096a	-0.015629489
94	0x3ae32411	0.0017329474
95	0xbca32ac0	-0.019917846
96	0x3bf16a9b	0.0073674447
97	0xbc321f79	-0.0108717615
98	0x3d2bf9a2	0.041986115
99	0x3d7c9eb7	0.0616748
100	0xbc8288c2	-0.015934352
101	0xbce8dd24	-0.02842576
102	0x3c9fff88	0.019531026
103	0xbcd3c0bb	-0.025848737
104	0xbc722829	-0.014780083
105	0x3be5e5aa	0.0070159035
106	0xbd2da9ea	-0.04239837
107	0x3c4b412b	0.012405674
108	0x3c6c2fa1	0.0144156525
109	0x3d6b6a7d	0.057474602
110	0x3db28d2b	0.08718332
111	0x3cd21cb9	0.025648462
112	0x3c726704	0.014795069
113	0xbd0bcadf	-0.03412902
114	0x3b8e7476	0.0043473793
115	0x3a9183d1	0.0011101906
116	0xbce23cbe	-0.027616855
117	0x3d628557	0.055302944
118	0x3ccb4cfe	0.024816986
119	0x3c9554f4	0.018228985
120	0xbd17b301	-0.037035946
121	0x3d30e09f	0.043182965
122	0xbc89ef6d	-0.0168378
123	0xbca00df0	-0.019537896
124	0x3d652169	0.055940066
125	0x3bef07dc	0.007294638
126	0x3c997251	0.018731268
127	0xbd1b2162	-0.037873633

network_body._body_endoder.seq_layers.2.weight f4 [128, 128]
0	0x3cfca8a0	0.030842125
1	0xbddfcd9c	-0.10927889
2	0x3d57ef0e	0.052718215
3	0xbda59561	-0.080851324
4	0xbcceb3a2	-0.02523214
5	0x3c2d565d	0.010579673
6	0x398540cb	0.0002541601
7	0x3d3911d0	0.045183003
8	0x3e2dde8f	0.1697943
9	0x3da558d0	0.0807358
10	0xbbaecf04	-0.005334737
11	0x3e891eed	0.26781407
12	0x3cc38e2d	0.023871506
13	0xbdcc5f51	-0.09979118
14	0xbc97d05c	-0.01853197
15	0x3e08e942	0.13370231
16	0x3d5b49a8	0.05353704
17	0xbe21921f	-0.15778397
18	0x3c7ec4d4	0.015549857
19	0xbb9c816a	-0.0047761695
20	0xbc59786e	-0.013273342
21	0xbb17185b	-0.0023055288
22	0xbd19a1e7	-0.037507918
23	0xbe5a6ecd	-0.2133133
24	0xbe076e3d	-0.13225646
25	0xbdba4be8	-0.09096509
26	0x3c91291f	0.017719803
27	0xbe7d53ee	-0.24739048
28	0x3da33c76	0.079705164
29	0x3dcdbae7	0.100454144
30	0x3e21d033	0.15802078
31	0x3c8bd14d	0.017067576
32	0xbd3388a6	-0.04383149
33	0xbd9418d1	-0.07231296
34	0x3db95b6f	0.09050643
35	0x3ce82abc	0.02834069
36	0xbd8cf5a4	-0.0688279
37	0x3e142134	0.14465791
38	0x3d454815	0.048164446
39	0xbb99c9e4	-0.0046932567
40	0xbdc0e5e9	-0.09418852
41	0xbbf8fe1b	-0.007598651
42	0x3dc75561	0.097330816
43	0xbd783115	-0.060593683
44	0xbd6e810e	-0.058228545
45	0x3db65f0c	0.089048475
46	0x3d25dafb	0.04049204
47	0x3d62cbd7	0.055370178
48	0x3e0d432d	0.13795157
49	0x3dbe1cce	0.09282838
50	0xbd88d051	-0.06680358
51	0xbdd71e48	-0.105038226
52	0x3ccdd85b	0.02512758
53	0x3e138490	0.14406037
54	0xbd80d114	-0.062898785
55	0xbda4fff0	-0.08056629
56	0x3e25eef9	0.16204442
57	0xbcb729fa	-0.022358883
58	0x3da4b964	0.08043173
59	0xbd12bcdf	-0.035824653
60	0xbe0f3160	-0.13983679
61	0xbe296908	-0.16543972
62	0xbc27ecea	-0.010249356
63	0xbb4abcfb	-0.0030935395
64	0xbd011623	-0.03151525
65	0x3d912fb0	0.07089174
66	0xbd4bbb3c	-0.049739107
67	0xbcf6328f	-0.030053405
68	0x3da112a9	0.07864887
69	0xbe1e9278	-0.15485561
70	0xbd5ea95f	-0.054360744
71	0xbd251c9e	-0.040310495
72	0xbe365da5	-0.1780916
73	0x3d6036ab	0.054739635
74	0x3e0a23e0	0.13490248
75	0xbc0035ae	-0.007825298
76	0x3d80a3b8	0.06281227
77	0x3c3f984c	0.011694025
78	0x3cb5ddf9	0.022200571
79	0x3d520c19	0.05128107
80	0x3d7bf203	0.061510097
81	0xbdaf40db	-0.08557292
82	0xbe183e3e	-0.14867494
83	0x3d9180ba	0.07104631
84	0x3d70687a	0.058693387
85	0x3d8aee32	0.067837134
86	0xbda50dc5	-0.08059267
87	0xbd500274	-0.05078359
88	0x3de84098	0.11340445
89	0xbcc97ffb	-0.024597159
90	0xbdf44492	-0.11927141
91	0xbdfda83c	-0.12385604
92	0xbd380225	-0.04492392
93	0xbde07048	-0.10958916
94	0x3d0e2e53	0.034712147
95	0x3d941efb	0.072324716
96	0x3d75be0e	0.059995703
97	0x3d9f9b02	0.07793237
98	0xbdfa8903	-0.12233164
99	0x3dc5e1df	0.09662222
100	0xbd167a8e	-0.03673797
101	0xbcdea7db	-0.02717965
102	0xbaddb20c	-0.0016914024
103	0xbdc28419	-0.09497852
104	0xbcc8a5b3	-0.024493074
105	0xbdd3edb2	-0.10348071
106	0x3cf55611	0.029948266
107	0x3e1417b9	0.14462174
108	0xbb6fae71	-0.003657248
109	0xbde6ca2e	-0.112690315
110	0x3d0f2eaf	0.03495663
111	0xbe6379b3	-0.22214393
112	0x3b5ec3c4	0.0033991197
113	0xbc3d2c5c	-0.011546221
114	0xbda5f12d	-0.08102641
115	0xbb69f863	-0.0035701029
116	0x3e315fa4	0.1732164
117	0xbc899156	-0.016792934
118	0x3c58ec92	0.0132399965
119	0x3d373f05	0.044737834
120	0xbd8e3f61	-0.06945682
121	0xbcb8a5a7	-0.022539927
122	0x3b35c959	0.002773842
123	0x3d191143	0.037369978
124	0xbe45363a	-0.19258967
125	0x3dd24933	0.10267868
126	0xbca3d942	-0.020001058
127	0xbbbf1009	-0.005830769
128	0x3d01741d	0.031604875
129	0xbdc10dc7	-0.09426456
130	0x3d878f86	0.06619172
131	0xbcd455f3	-0.02591989
132	0x3d289807	0.04116061
133	0xbd54117e	-0.051774494
134	0x3db2bc50	0.08727324
135	0x3ce6aa07	0.028157247
136	0x3de80609	0.11329276
137	0xbdbcf18f	-0.09225761
138	0x3cbe662c	0.023242079
139	0xbddd7fab	-0.10815366
140	0xbad87bfd	-0.0016516444
141	0xbd60481b	-0.054756265
142	0xbc044f34	-0.008075524
143	0xbd99aefb	-0.07504078
144	0xbdeb7d7d	-0.11498544
145	0x3dcf9f35	0.10137788
146	0xbc4c4037	-0.012466482
147	0xbe8beca4	-0.2732898
148	0xbe1a759f	-0.15083931
149	0x3df82300	0.12116051
150	0xbcd42895	-0.025898257
151	0xbdacd662	-0.08439328
152	0xbdb3aa15	-0.08772675
153	0x3c7c5841	0.015401901
154	0xbb862e82	-0.0040948996
155	0xbd984ead	-0.07436881
156	0xbd80d285	-0.062901534
157	0x3e50b265	0.20380552
158	0xbdbbe7b0	-0.0917505
159	0x3c289794	0.010290045
160	0xbd844cd8	-0.06459969
161	0x3da0cc14	0.07851425
162	0xbdc37fb9	-0.095458455
163	0x3d5f18c7	0.05446699
164	0xbdf2f5e1	-0.11863304
165	0x3e690fc1	0.22759916
166	0xbe1004be	-0.14064309
167	0xbc1e38f2	-0.0096571315
168	0x3d3ac225	0.045595307
169	0xbdebfd55	-0.115229286
170	0xbcb1a806	-0.021686565
171	0x3ddf14e4	0.108926564
172	0x3cfb7ffd	0.030700678
173	0x3e2f0032	0.17089918
174	0x3e0c48a1	0.1369958
175	0xbe45cbe2	-0.19316056
176	0xbc768c6b	-0.015048127
177	0x3d7b5f3d	0.061370123
178	0xbde4c60b	-0.11170586
179	0xbd995ea3	-0.07488754
180	0xba095445	-0.00052386924
181	0xbc3feb56	-0.011713823
182	0x3d7aebde	0.061260097
183	0xbca6510c	-0.020302318
184	0x3d203505	0.039113063
185	0xbd26fe0f	-0.040769633
186	0x3d98148d	0.07425795
187	0x3a470802	0.0007592441
188	0xbda07c47	-0.07836204
189	0xbce2ad5a	-0.027670551
190	0x3d4eba4e	0.050470643
191	0x3dfd7c42	0.12377216
192	0x3e18f404	0.14936835
193	0x3e3ce44e	0.18446466
194	0xbd5c031f	-0.053713914
195	0x3ca7d024	0.020484991
196	0x3bc8bc1b	0.0061259395
197	0x3d771849	0.060325895
198	0x3d536c22	0.051616795
199	0xbdd4dfdb	-0.103942595
200	0x3d4a9148	0.049454957
201	0x3a813b47	0.0009859585
202	0xbdc35b09	-0.09538848
203	0xbdde0d89	-0.108424254
204	0xbdc2f843	-0.095200084
205	0x3e4fc78f	0.2029097
206	0x3c362406	0.011116987
207	0xbdab69d5	-0.08369795
208	0x3e24b0c3	0.16083054
209	0xbd05d4fc	-0.03267382
210	0xbdbba226	-0.09161787
211	0xbd6cde2c	-0.057829067
212	0xbc73c5eb	-0.01487873
213	0x3ca768e8	0.020435765
214	0xbdba55c3	-0.09098389
215	0xbdb6436b	-0.08899578
216	0xbdd57d7d	-0.104243256
217	0xbc0f08f2	-0.00873016
218	0x3d42fe54	0.047605827
219	0xbcddb847	-0.02706541
220	0x3d952da2	0.072840944
221	0xbce46910	-0.027882129
222	0xbd4c9c0c	-0.049953505
223	0x3d733058	0.059372276
224	0x3ddb18c1	0.10698081
225	0xbd921b9d	-0.07134173
226	0xbdac363d	-0.08408783
227	0x3d9f0bb1	0.07765902
228	0x3cb146a5	0.021640131
229	0x3bf456dc	0.0074566435
230	0xbdde0e93	-0.108426236
231	0xbc6dbab0	-0.014509842
232	0xbc36b226	-0.011150872
233	0xbd2682d1	-0.0406521
234	0x3d9da9cf	0.07698404
235	0x3c7af6f8	0.015317671
236	0x3e2f2d72	0.1710718
237	0xbd6cff72	-0.0578608
238	0x3deccc3f	0.11562394
239	0xbc208194	-0.009796519
240	0xbd8da2a1	-0.069157846
241	0x3dec9f3f	0.11553811
242	0xbde44a0a	-0.11146934
243	0x3de3890b	0.11110123
244	0x3c507172	0.01272236
245	0x3c73f0ff	0.014889001
246	0x3e05b1fe	0.1305618
247	0x3d114668	0.035467535
248	0x3d70348f	0.058643874
249	0x3d28ed33	0.041241836
250	0xbb9675b2	-0.004591667
251	0xbd860e01	-0.0654564
252	0x3dc57e9d	0.0964329
253	0x3d3316b4	0.043722823
254	0x3e31842b	0.17335574
255	0x3c84d8f8	0.01621674

network_body.observation_encoder.processors.0.normalizer.running_mean f4 [8]
0	0xbb29a0f4	-0.002588329
1	0x3b48b482	0.003062517
2	0x3cdeefed	0.027214015
3	0x4045edf2	3.092648
4	0x3d60f00b	0.054916423
5	0x3d61a514	0.05508907
6	0xbf19ecc9	-0.6012693
7	0x3d17bb72	0.037043996
